…
            "2024-06-20 04:28:06.625045: E external/local_xla/xla/stream_executor/cuda/cuda_fft.cc:607] Unable to register cuFFT factory: Attempting to register factory for plugin cuFFT when one has already been registered\n",
            "2024-06-20 04:28:06.739031: E external/local_xla/xla/stream_executor/cuda/cuda_blas.cc:1515] Unable to register cuBLAS factory: Attempting to register factory for plugin cuBLAS when one has already been registered\n",
            "Overriding model.yaml nc=80 with nc=2\n",
            "\n",
            "                   from  n    params  module                                       arguments                     \n",
            "  0                  -1  1       928  ultralytics.nn.modules.conv.Conv             [3, 32, 3, 2]                 \n",
            "  1                  -1  1     18560  ultralytics.nn.modules.conv.Conv             [32, 64, 3, 2]                \n",
            "  2                  -1  1     29056  ultralytics.nn.modules.block.C2f             [64, 64, 1, True]             \n",
            "  3                  -1  1     73984  ultralytics.nn.modules.conv.Conv             [64, 128, 3, 2]               \n",
            "  4                  -1  2    197632  ultralytics.nn.modules.block.C2f             [128, 128, 2, True]           \n",
            "  5                  -1  1    295424  ultralytics.nn.modules.conv.Conv             [128, 256, 3, 2]              \n",
            "  6                  -1  2    788480  ultralytics.nn.modules.block.C2f             [256, 256, 2, True]           \n",
            "  7                  -1  1   1180672  ultralytics.nn.modules.conv.Conv             [256, 512, 3, 2]              \n",
            "  8                  -1  1   1838080  ultralytics.nn.modules.block.C2f             [512, 512, 1, True]           \n",
            "  9                  -1  1    656896  ultralytics.nn.modules.block.SPPF            [512, 512, 5]                 \n",
            " 10                  -1  1         0  torch.nn.modules.upsampling.Upsample         [None, 2, 'nearest']          \n",
            " 11             [-1, 6]  1         0  ultralytics.nn.modules.conv.Concat           [1]                           \n",
            " 12                  -1  1    591360  ultralytics.nn.modules.block.C2f             [768, 256, 1]                 \n",
            " 13                  -1  1         0  torch.nn.modules.upsampling.Upsample         [None, 2, 'nearest']          \n",
            " 14             [-1, 4]  1         0  ultralytics.nn.modules.conv.Concat           [1]                           \n",
            " 15                  -1  1    148224  ultralytics.nn.modules.block.C2f             [384, 128, 1]                 \n",
            " 16                  -1  1    147712  ultralytics.nn.modules.conv.Conv             [128, 128, 3, 2]              \n",
            " 17            [-1, 12]  1         0  ultralytics.nn.modules.conv.Concat           [1]                           \n",
            " 18                  -1  1    493056  ultralytics.nn.modules.block.C2f             [384, 256, 1]                 \n",
            " 19                  -1  1    590336  ultralytics.nn.modules.conv.Conv             [256, 256, 3, 2]              \n",
            " 20             [-1, 9]  1         0  ultralytics.nn.modules.conv.Concat           [1]                           \n",
            " 21                  -1  1   1969152  ultralytics.nn.modules.block.C2f             [768, 512, 1]                 \n",
            " 22        [15, 18, 21]  1   2116822  ultralytics.nn.modules.head.Detect           [2, [128, 256, 512]]          \n",
            "Model summary: 225 layers, 11136374 parameters, 11136358 gradients, 28.6 GFLOPs\n",
            "\n",
            "Transferred 349/355 items from pretrained weights\n",
            "\u001b[34m\u001b[1mTensorBoard: \u001b[0mStart with 'tensorboard --logdir runs/detect/train', view at http://localhost:6006/\n",
            "Freezing layer 'model.22.dfl.conv.weight'\n",
…
